screenshot.pth (torch, 3996 bytes, 2 tensors)

weight f4 [2, 56]
00000000: d6e4 af3d c4a4 90ba c9a5 533a 8c90 f33c
00000010: e715 c8bb f178 f43d 4159 663b 08c3 d3bc
00000020: d4bb c73c 5418 9dbc 20bd 293e 3a6d 213e
00000030: e929 8a3d fc7b 8e3d 7fad 0c3e 537e e8bc
00000040: c286 573d 51c3 303e 095e 9f3d e711 463b
00000050: 57ab 4dbd 583a 2b3e 5a2a 853d 6827 f13d
00000060: 91de 2d3e 50ba 293e 887d 353d b94d 8ebd
00000070: c1b5 543d 0b5e 73bd 4ad9 153e 94c5 a73d
00000080: df93 6c3c 7827 ed3d 9294 3e3d d274 9a3c
00000090: c913 173e 71ec 183e 31c2 203d 96bf 21bb
000000a0: b41e 0f3c febf 1d3e d324 4f3d afa3 273e
000000b0: 38bd f03c 42ef 93bc dc54 c33d 47e2 9f3d
000000c0: b420 273e a71c 7b3d f700 b53d 3f57 b73d
000000d0: 65a9 c5bc ea74 3c3e 9605 43c0 1f75 efbc
000000e0: 5a10 9ebd 2ee6 29be cc03 913d 7e46 de3b
000000f0: 2227 2abe 80ac 7b3d 416b e73c 812d 84bd
00000100: c29a 45bd bcce 323d 7bbf 01be 4270 3cbd
00000110: 121d bd3c e7e2 39be 1ca8 a83b 04a1 aa3c
00000120: c605 33bd 486b 7abd 775d d83c 0dbd 8ebd
00000130: 82e0 25be de89 27be 81a4 dcbc 29c2 49bd
00000140: 1f10 48bd cd82 f33c db17 26bc e347 86bd
00000150: 8c92 93bd d133 cdbd fca2 2ebe 482c 9cbd
00000160: 4202 68bd 337a f9bd 28e6 abbd 6f23 1cbe
00000170: 8ee0 9f3c e4c6 0cbe 1c72 e8bd bb91 8f3d
00000180: 9a63 253b 1f28 693c ad91 7a3d 0697 f0bd
00000190: 3267 34be 1b82 a5bd 3454 183d a1b8 833d
000001a0: c9f4 28be 36da d5bc 501e 17bc 7b19 50bc
000001b0: c0d4 b9bd 13b0 5b3d 506a 3740 2b9d 343d
0.08588569 -0.0011035432 0.0008073715 0.029732011 -0.0061061266 0.1193713 0.0035148414 -0.025849834
0.024381556 -0.01917664 0.16576052 0.15764323 0.06746275 0.06957242 0.13738059 -0.028380549
0.05261875 0.17262007 0.07781608 0.0030223073 -0.05021223 0.16721475 0.065022185 0.11775094
0.16979434 0.16574979 0.04430917 -0.06948418 0.051931147 -0.05941586 0.1463367 0.08191982
0.014439552 0.11579794 0.046528406 0.018854532 0.14753641 0.14933945 0.039247695 -0.0024680845
0.008735348 0.1540527 0.050572228 0.16371034 0.029387102 -0.018058423 0.0953767 0.07806831
0.16321069 0.061306622 0.08838075 0.08952188 -0.024128625 0.18403974 -3.047216 -0.029230652
-0.077179626 -0.16591713 0.07080802 0.0067833057 -0.1661649 0.061443806 0.028249385 -0.06453992
-0.04824329 0.04365419 -0.126707 -0.046005495 0.02308515 -0.18152963 0.0051469933 0.020828731
-0.043706678 -0.061137468 0.026411755 -0.06969652 -0.16198924 -0.16361186 -0.02693391 -0.04925743
-0.0488435 0.029725457 -0.0101375235 -0.0655668 -0.07205686 -0.10019649 -0.17054361 -0.076256335
-0.05664278 -0.12181511 -0.08393508 -0.15247892 0.019516256 -0.13747746 -0.1134989 0.07010218
0.002523637 0.014230757 0.061174084 -0.117475554 -0.17617491 -0.08081456 0.037189677 0.064316995
-0.16499628 -0.026105028 -0.009223536 -0.0127013875 -0.09073782 0.053634714 2.8658638 0.0440952

bias f4 [2]
00000000: 0b08 163e 7029 acbe
0.14651506 -0.33625364
